ann2snn_simple/checkpoint/example_net_ann.pth (torch_old, 47768 bytes, 4 tensors)

conv1.weight f4 [8, 3, 5, 5]
000000 cc a4 b7 bc 75 11 92 3e c9 be 98 3d 47 43 39 be
       -0.022417448 0.28528944 0.074582644 -0.1809207
000010 b2 67 3b 3d 9b 10 54 3d 2b 29 7f be e1 f0 d6 3e
       0.04575319 0.05177365 -0.24918048 0.4198065
000020 9e 98 ab 3e b1 ab 0a bd 80 9e b1 bd fa 68 9c bf
       0.33514875 -0.033855144 -0.086728096 -1.2219536
000030 27 b4 9c bf 3b c3 08 3c 9f ec 54 3e c1 68 05 3f
       -1.2242478 0.008347328 0.20793389 0.52112967
000040 82 79 9e 3f 3c bb 40 3e 87 b7 a8 bc e1 f9 db bb
       1.2380831 0.18821424 -0.020595325 -0.0067131375
000050 e6 0e e5 be cf e0 c0 3d 31 e8 c4 ba d1 f4 7e bd
       -0.4473793 0.09417879 -0.0015022812 -0.062245194
000060 5f f3 65 3d 78 f8 d5 bd bf 0e d0 3e c7 25 7d 3e
       0.0561403 -0.10447782 0.4063625 0.24721442
000070 0b e6 29 be 17 db 3c be aa e7 71 bc bf 69 cd bd
       -0.1659166 -0.18442951 -0.014764706 -0.10029935
000080 af 9a 0a 3f a8 6e 87 3e da fb ac be a8 26 09 be
       0.5414228 0.26451612 -0.33785897 -0.13393652
000090 55 fc 7e bf 7f 5a 7a bf 17 bc 73 3d 4e e8 90 bc
       -0.9960378 -0.97794336 0.05950555 -0.017688897
0000a0 08 39 bd 3e 86 54 b1 3f 12 71 d2 3e 0f 8a 24 3c
       0.36957574 1.385392 0.4110189 0.010042681
0000b0 d6 ca 80 be cb fa 11 bf f9 c3 20 3e 13 31 00 3e
       -0.25154752 -0.57023305 0.15699758 0.1251872
0000c0 42 00 70 bd cf a8 c7 bd 4f 4b 28 be 21 de 88 3c
       -0.058593996 -0.097489946 -0.16434978 0.016707482
0000d0 3a a0 ce bd 92 f7 37 be 43 76 3c 3e c8 a4 04 3e
       -0.100891545 -0.17965534 0.18404488 0.12953484
0000e0 07 f7 6f be 4e fd 83 3e fc 93 4b 3e be 6b b8 bb
       -0.23434077 0.25779194 0.1988067 -0.0056280782
0000f0 8c 9f c9 bc 98 01 88 bf 89 27 90 bf 79 95 82 bd
       -0.02461221 -1.0625486 -1.1262065 -0.06376166
000100 db b5 3a 3e 88 43 db 3e 57 32 8a 3f df 09 0b 3e
       0.18233435 0.4282496 1.0796613 0.13577984
000110 e1 7c 85 bd 9f a0 2c 3d 4a 23 8b be c3 45 7b 3e
       -0.065179594 0.042145368 -0.2717536 0.2453833
000120 03 b0 08 3e 10 3e 2f 3c 4d dc 83 3e 02 c6 ad bd
       0.13348393 0.010695949 0.25754014 -0.084850326
000130 d2 fb ad 3d 5b a9 af 3d 4a 80 84 bd fe 17 7c bb
       0.084952965 0.08577224 -0.06469782 -0.003846645
000140 22 a2 21 be ee 9f 7c 3e 42 a4 a3 be 3b b9 0c 3f
       -0.15784505 0.24670383 -0.31961256 0.5497014
000150 ad 8d c7 be fc 64 c1 bd 70 c7 c2 3e 0d 75 92 bf
       -0.38975278 -0.09443089 0.38042784 -1.1441971
000160 1f c2 b8 3f ac 45 32 bf c8 1a db bc ec 5c 13 3f
       1.4434241 -0.6963756 -0.026746169 0.5756366
000170 f9 76 c4 bf 92 89 a7 3f bc 71 c1 be 20 fd 46 bd
       -1.5348808 1.3088858 -0.37782085 -0.048581243
000180 a7 bd f7 3e a1 70 51 bf 71 dc 10 3f d0 6b 03 3d
       0.4838688 -0.81812483 0.56586367 0.03208524
000190 bf 91 00 3e 12 a3 92 bd 9d 88 0b be fe 6d 23 3d
       0.12555598 -0.071600094 -0.13626333 0.03989982
0001a0 38 64 06 3d 70 30 fc 3d 71 db 0a 3d c8 a9 26 bf
       0.03281042 0.12313926 0.033900682 -0.65102816
0001b0 7c df 33 3f b0 6c 26 be bf 09 52 3e 1e 79 5f 3e
       0.70262885 -0.16252398 0.2051153 0.21823546
0001c0 04 66 bf bf 22 60 cb 3f 3c 72 ba be 19 91 45 3e
       -1.4953008 1.5888712 -0.3641528 0.19293632
0001d0 38 88 fa 3e 13 7b e8 bf 77 bc af 3f 4d fc 41 be
       0.48932052 -1.8162559 1.372939 -0.18943901
0001e0 be b3 40 3d d4 90 b8 3e fa 96 8c bf c1 19 01 3f
       0.047046416 0.36047995 -1.0983574 0.5042992
0001f0 c8 14 d6 3b 84 3f e4 bd 91 1a e2 3c 6c c0 60 3c
       0.006533239 -0.11144927 0.027600558 0.013717752
000200 22 a4 42 3d 14 9c 95 bd 66 de be bd 14 04 56 3e
       0.04751981 -0.0730516 -0.09319763 0.20899993
000210 c8 54 b3 be 26 cd 1f 3f 2a 83 b3 be 0c 62 6e bd
       -0.3502562 0.62422407 -0.35061008 -0.058198974
000220 b8 37 b4 3e d4 dd 91 bf 02 2e b5 3f a7 38 12 bf
       0.3519876 -1.1395822 1.4154665 -0.57117695
000230 70 f2 b3 bb d3 03 18 3f aa 2e ba bf 71 05 a3 3f
       -0.0054915473 0.59380835 -1.4545491 1.2736036
000240 5c 8a b2 be e6 17 ce bd c6 d4 f1 3e 43 92 52 bf
       -0.34871185 -0.10063152 0.47232646 -0.8225443
000250 31 e7 0b 3f b7 20 0f be e4 97 c0 bd 09 43 a3 bd
       0.54649645 -0.13977323 -0.09403971 -0.0797177
000260 38 fe dc 3d 43 5e 23 3e c6 5b b3 bc dd 47 d6 3c
       0.10790676 0.15953927 -0.021894347 0.026157314
000270 c4 a4 f3 3e 51 a0 d0 3e 15 7a 23 3e 0a a0 a3 bd
       0.47586644 0.40747312 0.1596454 -0.079895094
000280 86 ad 7b 3e 63 e9 46 3f 8f 6a f6 3e 43 be 32 3e
       0.24577913 0.7769987 0.48128173 0.17455392
000290 85 49 5d be 6c 02 a8 be 7a 26 ec 3d 7c eb a2 3e
       -0.21610077 -0.32814348 0.11530776 0.31820285
0002a0 e0 f1 43 3e b1 ca aa be 4f 77 c3 be dd 50 8e be
       0.19135237 -0.33357766 -0.38176963 -0.2779607
0002b0 ad fc 18 3d da a4 b2 bd b8 11 04 bf 47 7b 8c 3e
       0.037350345 -0.08722849 -0.51589537 0.27437803
0002c0 da c2 4a 3c 33 b2 0f be ed 20 e2 bd 9e 94 a2 3d
       0.012375558 -0.14032821 -0.11041436 0.07938503
0002d0 8e bd 2f 3e 7c 9a c4 3d bc f3 95 be 4d 89 a0 be
       0.17162153 0.09599778 -0.29287517 -0.31354752
0002e0 f8 59 11 bd bc cc ab 3e 57 a4 2d 3e 83 71 cd be
       -0.03548619 0.33554637 0.16957222 -0.40125665
0002f0 68 e2 97 be 4c ee a0 bd 86 79 14 be d1 08 92 be
       -0.29664922 -0.078579515 -0.14499483 -0.2852235
000300 7b 1a 91 be b7 d5 3f bd 4b 78 1a bd 66 17 be 3c
       -0.28340515 -0.046834674 -0.037712377 0.023204517
000310 4a c3 57 be 99 14 ec 3c 5a 26 23 3e 16 64 99 3d
       -0.2107059 0.028818415 0.15932599 0.07489793
000320 7a a3 b5 3d 67 45 95 bd d4 bf 2f be e8 9e 63 bd
       0.08869071 -0.07288628 -0.1716302 -0.055571467
000330 e9 fa 4f 3e 0b 3d 87 be 02 f3 65 be cf da dd be
       0.20310558 -0.2641376 -0.22455981 -0.43331
000340 61 ec 7f be a0 0c 11 3e 0d b9 1e be 41 d9 d6 bd
       -0.24992515 0.14164972 -0.15500279 -0.10490657
000350 d3 d4 b5 be d5 40 b6 bb f4 21 9a 3e fc 14 00 bf
       -0.35513934 -0.005561928 0.3010403 -0.5003202
000360 d6 8e 99 be 8f f4 11 3d ab 77 d6 3e d4 29 d4 3e
       -0.29991788 0.03563362 0.41888174 0.41438162
000370 34 55 0f be cd e7 5c 3d b4 de 1f 3f 7b 87 48 3f
       -0.13997346 0.053932 0.62449193 0.78331727
000380 42 2b 0d 3f 4f 1f b9 3d 52 f8 6a bd f8 40 37 be
       0.5514413 0.09039175 -0.057365723 -0.17895877
000390 3e d6 ad bd 70 f5 c6 3e 2c ae 84 3e 63 8d 69 bd
       -0.08488129 0.3885913 0.25914133 -0.057019603
0003a0 d3 2a 94 be c1 60 1c be 93 94 81 3e 1e 3b fa bd
       -0.28938922 -0.15271284 0.25308666 -0.12218307
0003b0 a6 c5 9f be 9b 17 05 bf 96 b5 7b be eb 20 ae 3d
       -0.3120548 -0.51989144 -0.24580988 0.08502372
0003c0 29 11 64 3e 27 b8 2c 3d fc 8d 26 be 73 c4 a3 bd
       0.22272171 0.04216781 -0.162651 -0.07996454
0003d0 40 9c 06 3e a5 55 31 be d3 91 fd be 68 b3 25 bf
       0.13145542 -0.17317827 -0.49525318 -0.6472688
0003e0 63 c3 a5 be 65 f1 63 3d 4d 29 20 3d 2f 4d d2 bc
       -0.3237563 0.055650134 0.039101887 -0.02567157
0003f0 1c cb 19 be 0d 43 c6 bd 4b 00 d4 3d 0a 27 0d 3e
       -0.15018886 -0.09680758 0.103516184 0.13784423

conv2.weight f4 [16, 8, 3, 3]
000000 a5 0f 3b bc 6b ca 5e bc c5 bd 2e bc 46 0a 47 bc
       -0.011417304 -0.013598065 -0.010665362 -0.0121484455
000010 9f 0d 4a bc 6f 3c 4a bc c6 4d 4f bc 65 98 72 bc
       -0.012332349 -0.01234351 -0.01265282 -0.0148068415
000020 1f ae 65 bc 84 da 35 bc 04 a8 1f bc 40 1e 35 bc
       -0.0140185645 -0.0110994615 -0.009744648 -0.011054575
000030 e0 1b 84 bc d9 bf 75 bc 55 be 75 bc c8 7f a8 bc
       -0.016126573 -0.014999353 -0.014998992 -0.020568743
000040 10 5b 98 bc bf 1c 94 bc 25 59 47 bc b6 fe 3a bc
       -0.01859811 -0.018080113 -0.01216725 -0.011413267
000050 da 7c 44 bc 28 49 4c bc 58 7c 5d bc f3 1e 37 bc
       -0.011992658 -0.012468614 -0.013518415 -0.011176812
000060 83 e4 2e bc 63 c3 1d bc 15 a5 00 bc f8 ba 6d bb
       -0.010674599 -0.009629103 -0.007851859 -0.0036274772
000070 bb 38 38 bb d0 7e b3 ba ba 52 3f bc 44 fa 32 bc
       -0.0028109986 -0.0013694409 -0.011677438 -0.010923926
000080 eb 19 d1 bb a0 b8 96 bc 6d 39 7c bc 96 13 65 bc
       -0.0063812635 -0.018398583 -0.015394551 -0.01398172
000090 47 cf 3e bc b0 dc 4b bc 06 12 18 bc 0b 8c 6f bc
       -0.011646098 -0.012442753 -0.009281641 -0.014620791
0000a0 9e 83 4a bc 07 69 2b bc 58 57 6a bc 99 03 4c bc
       -0.012360482 -0.010462052 -0.014303051 -0.01245203
0000b0 b6 a5 ee bb 21 9e 27 3c 97 e8 00 3c 01 1b 0d 3c
       -0.007282938 0.010230572 0.007867954 0.008612395
0000c0 02 5b ab 3a b5 f5 ab b9 91 fc 7c 3a 68 7c 10 bc
       0.0013073387 -0.00032798728 0.00096506724 -0.008818723
0000d0 23 69 2e bc f0 aa 1e bc 4f c6 70 bc 8b 1f 72 bc
       -0.010645184 -0.009684309 -0.014695718 -0.014778028
0000e0 f5 8e 34 bc d0 46 48 bc 25 cb 60 bc 2f 52 62 bc
       -0.011020412 -0.012223914 -0.013720308 -0.013813539
0000f0 ef 8f 4e bc 26 7c 63 bc c4 51 55 bc e9 aa 1e bc
       -0.012607559 -0.01388458 -0.013019983 -0.009684303
000100 44 7a 1e bc 9f 95 17 bc 1b 85 29 bc 10 01 40 bc
       -0.009672705 -0.009251981 -0.010346676 -0.011719003
000110 c4 3e 39 bc b3 18 1b bc 34 f0 42 bc 5c 8e 24 bc
       -0.011306468 -0.009466338 -0.011898089 -0.010043707
000120 9b 01 a0 bd 7d b3 85 3d 45 bc 28 bd 64 02 b0 bd
       -0.07812806 0.06528375 -0.041195173 -0.08594206
000130 96 7c 3f 3e 3c 6b 6b be 0b 40 cb 3d 1b 72 ba 3d
       0.1869987 -0.22990125 0.099243246 0.09103795
000140 a0 b3 0e bf 8f ef d7 3d ed 0b 94 3d e2 e8 8d 3e
       -0.55742836 0.10543739 0.07228837 0.27716738
000150 ee 9c 19 bd 87 05 aa be da dc e5 be d6 0d 61 be
       -0.037503175 -0.33207342 -0.4489506 -0.21977934
000160 a0 91 b1 be fb b7 91 be 71 4b 33 be 4c 72 ce be
       -0.34681416 -0.28460678 -0.17509247 -0.40321577
000170 d5 fd b0 3e 83 ac cd bd d1 18 07 3f e3 e0 40 3d
       0.34568658 -0.100426696 0.5277224 0.04708947
000180 a0 4a 97 3d e5 c1 f9 3d f2 3b 22 be e2 29 d6 3e
       0.073872805 0.121951856 -0.1584318 0.4182883
000190 0c 41 6c be 1b ad a2 be 06 df 18 be 99 41 c4 be
       -0.23071688 -0.31772694 -0.14928827 -0.38331297
0001a0 96 42 b5 3e 11 16 17 be e2 53 a2 3e 58 73 0c 3e
       0.35402364 -0.14754511 0.31704623 0.13715875
0001b0 6f 53 57 3e b0 9e 8d bc e2 75 95 be 33 74 cf bd
       0.21027921 -0.017287582 -0.291915 -0.10129585
0001c0 72 e9 ec be d4 17 34 3f df ea bc bd 2e 18 0e 3f
       -0.46271855 0.7034886 -0.092244856 0.55505645
0001d0 05 26 95 3e 76 41 b9 bc 8b 02 e5 bd 8d 9b 87 3b
       0.2913057 -0.022614222 -0.11182126 0.004138416
0001e0 fe bb 0d 3e 1f df 31 bd 01 67 fd 3d 4f 64 af 3d
       0.13841245 -0.043425675 0.12373162 0.08564054
0001f0 f1 71 6f be 20 02 e9 bc 0d 75 09 3e 7e 48 03 be
       -0.23383309 -0.028443396 0.13423558 -0.12820622
000200 f1 ff 2e 3e 69 42 67 3e 57 87 70 3e 0c 99 0c bf
       0.17089821 0.22583927 0.23489128 -0.5492103
000210 f1 7c 9f be 6d ab 05 be 30 7a 0a 3d 7b b8 17 3e
       -0.3115001 -0.13053675 0.033807933 0.14816467
000220 30 a5 0f 3d 14 63 01 be f5 af d5 bc 59 0d 03 bf
       0.035069644 -0.12635452 -0.02608488 -0.5119224
000230 81 42 2d 3f 29 7d bf 3d 8f 67 03 3e 1b 70 45 be
       0.676796 0.09350044 0.12832473 -0.19281046
000240 0c 0b 4c 3e 4d c4 d4 bd 4d ce f1 3d 22 4a ea bc
       0.19926089 -0.10389004 0.11806927 -0.028599802
000250 ae ec 40 3e 0f 7a e6 3d 1f 10 12 be 42 b5 3d 3c
       0.18840286 0.112537496 -0.14263962 0.01157886
000260 9f 44 30 3e c7 48 90 be 72 78 83 3d ce fa 40 3c
       0.17213677 -0.28180525 0.064194575 0.0117785465
000270 83 db 84 3e b8 23 0f be d1 e7 5f 3d 7f 02 1c 3e
       0.25948724 -0.1397847 0.054664437 0.15235327
000280 6f 52 75 3e 01 7a 78 3d 4a e4 e5 3d fb fb 9b be
       0.23957227 0.060663227 0.11225183 -0.30465683
000290 d1 8a 9e bd a0 2f 25 be cf ba 76 be db 48 a4 be
       -0.07741321 -0.16131449 -0.240947 -0.32086834
0002a0 c3 ed e3 3d b6 b0 45 be 2d d8 44 be 42 04 2b bc
       0.11129334 -0.19305691 -0.1922309 -0.010438027
0002b0 8b e0 de bd 8f 1e e9 3b d5 59 9c 3e 2c ab 02 bf
       -0.10882672 0.0071142386 0.30537286 -0.5104244
0002c0 ae d4 87 bc 6a fa ed 3e d4 9e e5 3e ad be 14 3e
       -0.016580906 0.46480113 0.4484774 0.14525862
0002d0 4c 18 92 3e 6e 46 ab bc 06 0f b8 3e 7b d5 f2 3d
       0.28534162 -0.020907607 0.35948962 0.118571244
0002e0 b0 17 f3 be 21 53 bf bc 0e 62 05 3f 3e 01 72 be
       -0.4747901 -0.023355069 0.52102745 -0.23633286
0002f0 4f 5c 8e be 63 66 9f be ba 7d 9d be 6b 10 88 be
       -0.278048 -0.31132802 -0.30759984 -0.26575026
000300 f3 db 8a be 59 da 1e bf 72 ab ec bd 31 ad f8 be
       -0.27120933 -0.6205192 -0.11556138 -0.48569635
000310 9f af f5 be 33 80 66 be 66 d3 28 3e 60 f6 fe 3d
       -0.4798555 -0.22509842 0.16486892 0.12449336
000320 cb 1a c0 3e 9f 78 fa bd aa 12 88 bd 0b 9d 10 3e
       0.3752044 -0.12230038 -0.06644185 0.14122407
000330 0d c2 b1 3d d4 95 b9 be bf 05 6f be 1f 4b 79 3e
       0.086795904 -0.36247122 -0.23342036 0.24345063
000340 32 a0 14 bf 12 a7 bf 3e a3 86 d3 be dd 29 60 3f
       -0.5805694 0.37432152 -0.41313657 0.8756388
000350 db eb 24 3d f6 f7 48 3e 80 8b 02 bf 44 18 ea 3e
       0.04026399 0.1962584 -0.5099411 0.45721638
000360 a0 57 1e 3d b7 5f 15 bd 86 d7 9a 3d 67 f5 22 be
       0.038657784 -0.036468234 0.07560639 -0.15913926
000370 51 e0 11 3e b0 8b ce 3d fc 2a 86 3d 4c 45 89 3d
       0.14245726 0.10085237 0.06551167 0.067026705
000380 f3 fe 33 bd 82 d0 2f 3e 17 9b cf 3e e9 3d b5 3e
       -0.04394431 0.17169383 0.40548012 0.35398796
000390 9f cc 22 be 0d c7 55 be 3a e0 58 3e cc cc 10 be
       -0.15898369 -0.20876713 0.21179286 -0.14140624
0003a0 e2 f8 ba be 75 76 76 be 60 08 01 be 4b 1f 0e be
       -0.36518008 -0.24068625 -0.12600851 -0.13879125
0003b0 c7 3d e0 3e 8b 2f f8 3d ca ed 1c be 05 7a 10 bf
       0.43797132 0.12118443 -0.15325084 -0.5643619
0003c0 42 04 b7 3d 01 36 08 3e f2 bc d6 3d 4b 23 98 be
       0.08936359 0.13301851 0.10485257 -0.29714426
0003d0 04 41 a7 be 20 35 8e 3e b6 6a fe 3e 1a 55 35 3d
       -0.3266679 0.27774906 0.4969079 0.044270612
0003e0 f4 e2 f8 be 1e ec 29 3e 00 04 6a 3e b6 6d 44 3e
       -0.48610651 0.16593978 0.22853088 0.19182476
0003f0 39 25 20 3d 41 9f 1c bc 9a d7 35 be 27 4f 31 bd
       0.039098 -0.009559453 -0.17758027 -0.043288376

conv3.weight f4 [32, 16, 3, 3]
000000 80 6c a5 3b ef 20 01 3c ea 08 14 3c d4 57 cd b9
       0.0050483346 0.007881387 0.009035328 -0.00039166084
000010 29 08 81 3b 51 28 8f 3b bd 7d 0f 3b 9c fd 94 3b
       0.0039377403 0.0043688198 0.0021895014 0.004546834
000020 db b8 d6 3b 19 64 ed bd 5a 04 15 be e3 bb b6 bd
       0.006552798 -0.11591358 -0.14552441 -0.08922555
000030 ba 1c da 3d 07 28 c1 bd 85 2c 42 be 4c 99 70 be
       0.106500104 -0.09431463 -0.18962295 -0.23495978
000040 92 2f e1 be 70 d8 eb bd da ec 93 ba 58 91 85 3d
       -0.43981606 -0.115158916 -0.0011285797 0.06521863
000050 26 ca bf bc 79 84 1d 3e d4 5e 46 3e 7c a1 78 bd
       -0.023411822 0.15382566 0.19372112 -0.06070088
000060 ba 07 08 be 44 ca f4 3c 55 6e 31 bd 2b 83 d3 bc
       -0.13284197 0.029881604 -0.04331811 -0.025819382
000070 78 5d 11 3e c9 27 aa 3e 58 13 2d 3e 72 bf b8 3d
       0.14195812 0.3323348 0.1690191 0.0902089
000080 cb c7 81 3d 6a ff 41 bd d3 01 e9 bd 1d 18 d5 bd
       0.063369356 -0.047362722 -0.11377301 -0.1040499
000090 fe 12 87 be fa ad 3e be 8a 1a be bd ea 05 46 be
       -0.26381677 -0.18621054 -0.09282406 -0.19338194
0000a0 38 b1 14 be b5 f4 42 3c ba 12 a0 3e 85 f8 a3 3e
       -0.14520729 0.011899163 0.31264287 0.32025543
0000b0 55 19 c9 3e e7 b5 96 3e 83 26 ca 3e 39 1f 92 3e
       0.3927714 0.29435655 0.39482507 0.28539446
0000c0 d6 d1 98 bd 25 46 69 bd a8 bb ed bd 91 b4 55 3c
       -0.07461898 -0.05695166 -0.11608058 0.013043539
0000d0 fb 38 81 3d a5 84 30 bd 9c ab 56 3e f2 c2 ac bd
       0.06309696 -0.04309525 0.20963901 -0.0843562
0000e0 af 8d 88 3d 8a af ef 3d c4 02 e4 b9 df 3c 93 bd
       0.06667649 0.11703403 -0.0004348961 -0.071893446
0000f0 a5 91 a0 3e 72 38 35 be 4b a9 06 bd e2 0f 71 3a
       0.31361118 -0.17697313 -0.032876294 0.0009195787
000100 57 b1 73 3b b8 18 52 3b 7a 1c 90 3b 19 b9 c7 3b
       0.003718456 0.003205819 0.004397926 0.0060950634
000110 df 7c da 3b 3e 13 ad 3b 54 3d b3 3b 5f 74 b3 3b
       0.006667718 0.005281835 0.0054699574 0.005476519
000120 b9 a8 b4 bc be 6a 24 bd 7f 60 20 bd 89 a0 b6 3d
       -0.02205311 -0.04014086 -0.039154526 0.089173384
000130 23 5b 48 3d d8 2b 2e 3d 96 69 62 3d e3 4b c0 3c
       0.04891504 0.04252228 0.055276476 0.023473686
000140 49 c5 10 3d 5b 85 58 be fa f7 df bd f8 3f 2a be
       0.035344396 -0.21144621 -0.1093597 -0.16625965
000150 e0 51 7a be 49 4e 9e be b3 b2 f8 bd 6d c8 5e 3e
       -0.24445295 -0.30919102 -0.12143459 0.21756144
000160 6d 4b 41 3e a0 dd 22 3e 0e 32 12 3e 26 eb de 3c
       0.18876429 0.15904856 0.14276907 0.027211737
000170 d3 8e f9 bd 47 92 1e 3e a2 dd 1a 3e 6b 8d 92 3c
       -0.12185445 0.15485488 0.15123609 0.017889699
000180 fc f2 d7 bd cd 19 eb bd 8e e5 27 be 7d 83 a0 3d
       -0.105443925 -0.114795305 -0.16396162 0.078375794
000190 d0 98 64 be 4a e7 39 be 90 43 80 be 5c 2d e4 3d
       -0.22323918 -0.18154636 -0.25051546 0.11141464
0001a0 8b 90 85 3d 15 f0 8e be 1a 0d 95 3d d7 ad c4 3c
       0.0652171 -0.27917543 0.072778895 0.024008675
0001b0 8b 9f f6 3d 25 21 4b bb e3 be b0 3d 3b 85 09 be
       0.12042149 -0.0030995097 0.08630159 -0.1342973
0001c0 7d 01 04 bd c0 a6 db 3d 33 ad b8 be c2 ea 2b be
       -0.03222798 0.107251644 -0.3606964 -0.16788772
0001d0 96 88 13 bd 33 78 e0 bd 48 0a 98 be f1 86 1b be
       -0.03601893 -0.10960426 -0.29695344 -0.15188195
0001e0 e2 db 3f be b8 b5 c8 bc 78 c9 0f be 3d 78 1b be
       -0.18736222 -0.024500713 -0.14041698 -0.15182586
0001f0 ce fd 26 be 82 e0 89 be 2d ab 3f 3e fd 12 ea 3b
       -0.16307756 -0.26929098 0.18717642 0.007143377
000200 75 fc 06 3e 75 bd 9c 3e e6 cb a2 be 20 00 41 3e
       0.13182242 0.30613294 -0.31796187 0.18847704
000210 16 5c b9 3e 93 4f 85 3e 2f 03 89 3e c3 b4 90 bd
       0.36203068 0.26037273 0.2676024 -0.070657276
000220 f3 f3 43 bd d4 e5 88 bc 45 ff eb bd 61 59 89 bd
       -0.04784007 -0.016711153 -0.11523298 -0.06706501
000230 62 35 04 bd 29 db 89 3d bd 41 4d 3d b4 fc a4 3c
       -0.032277472 0.067312546 0.05011152 0.02014003
000240 59 9b b6 3b 33 2d 14 3c 53 cd 2e 3c 5f b5 f4 3b
       0.005572718 0.009043979 0.01066907 0.00746791
000250 e2 81 27 3c 0c 38 54 3c 53 36 3b 3c 4c f3 49 3c
       0.010223838 0.012952816 0.011426526 0.012326073
000260 73 97 17 3c 7e 7c c4 be 3e 7a f0 be 13 82 ee bd
       0.009252417 -0.3837623 -0.46968263 -0.116459034
000270 cd fd b3 be 94 37 2a bd a9 e6 2c 3e 41 97 fb bd
       -0.35154572 -0.04155691 0.16884865 -0.12284709
000280 c1 8f 78 3e 7c e4 a9 3e 9a 3d 74 be 05 fc ff 3c
       0.24273588 0.33182132 -0.23851624 0.031248102
000290 d8 2d 94 3d 35 8a 3f be c8 fd c6 3d b3 28 eb 3c
       0.072353065 -0.18705066 0.09716374 0.02870593
0002a0 f3 8e a7 bd b5 46 a9 3d f9 75 9e 3e ff 4d d2 3d
       -0.08181562 0.082654394 0.3094938 0.10268783
0002b0 3b 4b 35 3e 23 87 e7 bc 46 db 78 bd 3d 8b ad 3c
       0.1770448 -0.02826268 -0.06075599 0.021184558
0002c0 2f b4 37 3c d4 f0 a9 be 5a 96 aa be ec 22 eb bd
       0.011212393 -0.3319155 -0.33317834 -0.1148127
0002d0 0c d3 b8 be 94 a1 b1 be 8b 49 31 3d 9c dc 34 be
       -0.36098516 -0.34693587 0.043283027 -0.17662281
0002e0 db d7 bb bc 9d eb 4a 3e 88 71 58 3e 66 29 01 3e
       -0.022930076 0.19816442 0.21137059 0.12613449
0002f0 4f 6e 4d 3b a4 72 5e be fd 70 bf be 09 de 78 3c
       0.0031346267 -0.2172342 -0.3739089 0.015189656
000300 6d f6 c2 be 48 17 ab be c3 42 e5 3d 58 91 e7 bc
       -0.38078633 -0.334162 0.111943744 -0.028267547
000310 81 c1 ea bd 48 0c 1b be bb 15 1e be 94 1a 3a 3c
       -0.11462689 -0.15141404 -0.15437977 0.011358876
000320 a1 41 4c 3d 13 f5 12 3e 28 cf d3 bd 2a 95 1e 3e
       0.049867276 0.14351301 -0.10342246 0.15486589
000330 1f 6e 56 3d f3 6b 3f bd 54 45 50 3d 22 8b 8a ba
       0.052351113 -0.046733808 0.050847366 -0.0010570029
000340 ea 53 4a ba a3 4e e6 ba b2 65 f3 ba e4 99 98 bb
       -0.00077181926 -0.0017571043 -0.0018569736 -0.004657017
000350 fe 53 e3 ba 60 9b d2 ba b8 9d 38 bb 95 49 20 b9
       -0.0017343757 -0.0016068034 -0.002817018 -0.000152862
000360 0d da 0d bd fa 48 ef 3a 54 8f 59 bc d5 cb ce bc
       -0.034631778 0.0018256002 -0.013278801 -0.025243679
000370 af 6f 36 bc 9c 2b c2 3b 29 21 3e bd fb 7b 2e 3b
       -0.011135026 0.005925609 -0.046418343 0.002662419
000380 60 fb 22 3d 21 dc 71 be 18 1c 2b 3e ef 0a b0 3e
       0.03979051 -0.23619129 0.16709936 0.34383342
000390 8f df f9 3d 47 5f a9 3d be 0d 94 3e d4 72 16 3e
       0.122008435 0.08270126 0.28916734 0.14692241
0003a0 f9 c9 c3 bd 3a 62 2c 3e a4 ea 8f 3d d7 0e c3 3b
       -0.095600076 0.16834345 0.07027176 0.005952697
0003b0 6a bd 5b be 2f 0d 17 3e ef 42 89 bc fb 54 02 be
       -0.21458974 0.14751123 -0.01675555 -0.1272773
0003c0 aa 37 02 bc da cf 88 3d ed 0f 1a be 1f a0 1e 3e
       -0.007947842 0.066802695 -0.15045138 0.15490769
0003d0 4f cc c1 3c 6d ff 88 3e d5 68 09 bd d5 f3 c2 3d
       0.023656992 0.26757374 -0.03354724 0.095191635
0003e0 a8 c2 a2 be 12 50 26 3e a7 83 02 3d f8 86 85 3c
       -0.31789136 0.16241482 0.031863835 0.01629971
0003f0 8f 68 a3 3d d5 42 ca 3d a8 25 94 3b 64 61 55 3e
       0.07978927 0.098760284 0.0045210905 0.20837933

fc1.weight f4 [10, 512]
000000 68 b9 79 3d 45 9f 87 3d ef 54 56 3d 17 f6 c4 3c
       0.060967833 0.06622175 0.052327093 0.024043126
000010 2a db 9c 3d cd 48 4b 3d c9 d1 18 3d 29 2f 5c 3d
       0.0765899 0.049629975 0.03730944 0.053755913
000020 1b 63 cd 3d 5e 6a ca 3d a2 67 6f 3d 12 4d 15 3d
       0.100286685 0.09883569 0.05844844 0.036450453
000030 73 f2 dc 3b 3c 80 17 3e 94 8d cc 3d 75 c6 e6 3a
       0.0067427694 0.14795011 0.099879414 0.0017606752
000040 27 ce 2c 3e d4 dd 82 3d b5 90 ca 3d 1d f6 dc 3d
       0.16875516 0.063899666 0.09890882 0.1078913
000050 0e f5 53 3d ad 6b d6 3c b6 66 2f 3d 31 86 e7 3d
       0.051747374 0.02617439 0.042822562 0.11304892
000060 4c 52 42 3d 7d 11 8a 3d dd 08 48 3d 01 6b 07 3e
       0.047441766 0.06741617 0.048836578 0.13224413
000070 51 c0 17 3e c5 9a 83 3d af 4a d1 3d a3 c5 bb 3d
       0.14819457 0.06426004 0.10219323 0.091685556
000080 f4 5f bc bd 07 f6 c6 bd cd 85 24 bc 3f 6d 49 3d
       -0.09197989 -0.09714895 -0.010041666 0.04917645
000090 38 f6 04 bd 73 e1 3e bd 39 4a 87 bd f5 ce 55 bb
       -0.032461375 -0.046601724 -0.06605954 -0.0032624577
0000a0 b2 c7 81 3c cb 8f b8 bc 1a c9 50 bc 10 c8 7f bc
       0.015842292 -0.022529503 -0.012743259 -0.015611663
0000b0 cc b2 47 bd 5c 9b 52 bc 85 69 b0 bd 4d bf 98 bd
       -0.0487545 -0.012854423 -0.08613876 -0.07458363
0000c0 5b f4 30 bd 2d 07 c1 3d 18 db d7 3d 3c 0b d2 3d
       -0.043201786 0.09425197 0.10539836 0.10256049
0000d0 94 fa 92 3b 2d 3a 6c 3d 2b 0e a0 3d a4 40 6f 3d
       0.0044854376 0.05767267 0.07815202 0.058411255
0000e0 0b ee a6 3c 2e 8a a5 3d bd 02 80 3d a2 48 a5 3d
       0.02037718 0.08082996 0.06250522 0.08070494
0000f0 4d 01 d8 3c cb 9f c8 3d b6 72 7d 3d 86 eb ad 3d
       0.026367808 0.09796103 0.061876975 0.08492188
000100 e0 19 84 3e 65 c7 26 3e 0c 48 24 3e 67 5d 4e 3e
       0.2580099 0.16287 0.16043109 0.20152818
000110 70 5d ae 3d b7 42 7a 3d a7 c8 a7 3c 37 c3 b7 3c
       0.085139155 0.06109878 0.02048142 0.022431953
000120 6e 23 f5 3d 19 08 0d 3d 2b 05 dc 3d bf c9 88 3d
       0.11969648 0.03443155 0.10743173 0.06679105
000130 05 37 60 3e ae 23 7b 3e 4d e7 4d 3e 0c bc 33 3e
       0.21895988 0.2452533 0.20107765 0.17552203
000140 40 a5 83 3d 1e 66 26 3d 29 a6 c0 3d 10 2c 88 3d
       0.06428003 0.04062473 0.094066925 0.06649029
000150 8f a3 5c bc 4a f2 5f 3d d7 17 93 3d 76 10 1c 3d
       -0.01346673 0.054674424 0.071822815 0.038101636
000160 0c 77 fb 3b 19 8c 79 3d db 3b f6 3c 07 9f 20 3d
       0.0076741036 0.060924623 0.030057838 0.03921416
000170 2f ad 3e 3d f1 f1 96 3d 80 1f 99 3d 7b 17 e5 3d
       0.04655188 0.073703654 0.07476711 0.11186119
000180 4d a7 fd bd 3b 66 a8 bd c2 a5 c4 bd a5 6f 66 be
       -0.12385426 -0.08222624 -0.09601928 -0.22503527
000190 fc 3a 08 be 67 61 04 bd b5 cf 9f bc 33 cd 73 bd
       -0.13303751 -0.032319453 -0.019508222 -0.059521865
0001a0 0b a2 cc bd d9 73 30 3d 6a f8 38 3d a3 84 86 bc
       -0.09991845 0.04307923 0.04515878 -0.016420668
0001b0 2e 9b a2 bd 1f e5 91 bb de 6d 6d 3d 76 a4 5d bd
       -0.079397544 -0.004452362 0.057966106 -0.05411192
0001c0 b7 24 cb bd 3b 13 06 bc 74 3c 74 bd cf 37 20 bc
       -0.09919112 -0.008183296 -0.059627965 -0.009778931
0001d0 de f3 67 bd 76 72 2f bd e2 a9 ee 3c 84 f4 52 3c
       -0.056629054 -0.042833768 0.02913374 0.01287568
0001e0 ac 24 5d bd 91 66 ff 3c bb 92 00 bc 23 bf d9 3c
       -0.05399005 0.031176837 -0.007847483 0.026580399
0001f0 de 52 1a 3d 4a b5 0d 3d bf 28 c8 3c 7a 57 4c 3d
       0.037676685 0.03459672 0.024433492 0.04988811
000200 d3 81 33 3d 44 5a ed 3b 3e c2 68 bd 18 0c 62 3d
       0.043824982 0.0072434265 -0.05682587 0.055187315
000210 24 7a a1 3d 81 57 88 3b dc 8f 33 bd 58 60 52 3c
       0.078846246 0.004160822 -0.043838367 0.012840353
000220 9d 2b b7 3d a2 0e 09 3d f8 25 fe 3b 13 8e a3 3d
       0.089438654 0.03346122 0.007755991 0.07986083
000230 98 f9 13 3e 64 db ff 3d 57 0a 88 3d 40 9f ad 3c
       0.14450681 0.12493017 0.06642597 0.0211941
000240 41 24 40 3b e9 67 bd 3d c5 fe d6 3d 66 fe 42 3e
       0.0029318484 0.09248335 0.10497812 0.19042358
000250 c6 cb f9 3c 9f 00 74 3d 78 b9 be 3c ae 80 d3 3d
       0.030492675 0.059570905 0.023281798 0.10327278
000260 c8 31 c1 3c 82 5d 2d 3d d1 ae 39 bc 30 e1 15 3d
       0.023583308 0.042325504 -0.011333183 0.03659171
000270 02 d5 d1 bd c7 ac 3f bc 7e d9 91 3c d3 4e 8f 3d
       -0.10245706 -0.011698908 0.017803904 0.069974564
000280 ac 07 d6 bd 31 44 18 3d 7b 30 e9 3d 11 fb a4 3c
       -0.10450682 0.037174407 0.113862 0.020139249
000290 9f dd 65 3c b6 48 5c 3d 7f a1 8c 3d a2 58 d0 3d
       0.014029889 0.05378028 0.068667404 0.10173155
0002a0 2b f3 8b 3c b0 97 bf 3c 13 9d 21 3d f4 25 e7 3d
       0.017083725 0.02338776 0.03945644 0.11286536
0002b0 52 ef 8a 3c 2d fa b3 3d 81 a8 90 3d ee 7c 23 3e
       0.01695982 0.087879516 0.070633896 0.15965626
0002c0 bb 56 eb 3d 8c 19 3e 3e f9 10 6a 3e cb ec ac 3e
       0.11491152 0.18564433 0.22858037 0.3377441
0002d0 a9 23 d1 3d c4 b7 05 3e cb b2 3f 3e 76 8a 96 3e
       0.1021188 0.13058382 0.18720548 0.29402512
0002e0 4f 93 f4 3d d9 f8 df 3d 1f 17 22 3e b4 83 95 3e
       0.119421594 0.10936136 0.15829132 0.29202044
0002f0 fb a2 eb 3d a4 d4 1a 3e cb c0 20 3e bb f2 c5 3e
       0.115056954 0.15120178 0.15698545 0.3866175
000300 39 05 0f 3e db 5d 87 3d 1c 48 85 bc 7c a9 7f 3d
       0.13966836 0.066096984 -0.016269736 0.062417492
000310 f3 15 de 3d f9 6e 43 3d 65 43 89 bc 98 f4 fa 3c
       0.1084403 0.047713254 -0.016755769 0.03063421
000320 6c 65 83 3d 7e f8 0a 3d 86 dc 01 bd b1 65 86 bd
       0.06415829 0.033928387 -0.03170445 -0.06562365
000330 68 75 99 3d 7f 2b 3c 3c 74 aa 19 bb 7b 29 08 be
       0.074930966 0.01148498 -0.0023447545 -0.13297074
000340 8b 3e 4a 3e 9e a3 9b 3d 2d 40 89 3c 8b d8 05 bd
       0.19750421 0.07599567 0.016754234 -0.032677215
000350 71 3d 33 3e 02 d2 a0 3d 1c 1b 1f 3c 59 78 9e 3d
       0.17503907 0.07852556 0.009711053 0.07737798
000360 5d 82 46 3e a5 0f b3 3d 2c fe 65 3d 6f 12 7e 3d
       0.19385667 0.08743218 0.0561506 0.0620293
000370 c5 df 3a 3e 7b fb c2 bb ac d3 d6 3c 35 aa 89 bc
       0.18249424 -0.005950389 0.02622398 -0.016804794
000380 34 93 f1 bd 9a 15 95 bd 66 fe c7 bd ef a9 f0 bd
       -0.11795655 -0.07279511 -0.097653195 -0.11751162
000390 f4 5c da bd e8 07 94 bd 80 0f d8 bd e9 b4 c1 bd
       -0.10662261 -0.072280705 -0.105498314 -0.09458334
0003a0 f9 b0 46 bd 5e 05 4a bd 38 4b 84 bd 85 a9 c7 bd
       -0.048508618 -0.049321525 -0.06459659 -0.0974913
0003b0 b1 de 46 bd 2a 83 30 3c d2 a3 dc bb ea 71 e5 bc
       -0.04855222 0.010773459 -0.006733396 -0.02800842
0003c0 47 bc 01 3e 04 2e 3f bc 3c 4b 87 3c cb c9 62 bd
       0.12669478 -0.011668686 0.016515367 -0.055368226
0003d0 72 6e 9b 3d 2e bf a6 bc 6f f9 ba 3d f0 c0 7e 3d
       0.07589425 -0.020354833 0.09129607 0.06219572
0003e0 3c de a8 3b ca 78 a0 bd 39 a1 2a 3d 15 13 8c 3d
       0.0051534455 -0.07835539 0.04165766 0.06839577
0003f0 7f 79 d4 bd 0b 03 00 be 88 e6 56 bd 38 e1 d6 3c
       -0.10374736 -0.12501161 -0.052465945 0.02623044
